…
snapshot_prefix: "vgg_cnn_m_1024_fast_rcnn"
average_loss: 100
I0110 14:27:28.324519 10246 solver.cpp:61] Creating training net from train_net file: models/VGG_CNN_M_1024/train.prototxt
I0110 14:27:28.324736 10246 net.cpp:42] Initializing net from parameters: 
name: "VGG_CNN_M_1024"
state {
  phase: TRAIN
}
layer {
  name: "data"
  type: "Python"
  top: "data"
  top: "rois"
  top: "labels"
  top: "bbox_targets"
  top: "bbox_loss_weights"
  python_param {
    module: "roi_data_layer.layer"
    layer: "RoIDataLayer"
    param_str: "\'num_classes\': 2"
  }
}
layer {
  name: "conv1"
  type: "Convolution"
  bottom: "data"
  top: "conv1"
  param {
    lr_mult: 0
    decay_mult: 0
  }
  param {
    lr_mult: 0
    decay_mult: 0
  }
  convolution_param {
    num_output: 96
    kernel_size: 7
    stride: 2
  }
}
layer {
  name: "relu1"
  type: "ReLU"
  bottom: "conv1"
  top: "conv1"
}
layer {
  name: "norm1"
  type: "LRN"
  bottom: "conv1"
  top: "norm1"
  lrn_param {
    local_size: 5
    alpha: 0.0005
    beta: 0.75
    k: 2
  }
}
layer {
  name: "pool1"
  type: "Pooling"
  bottom: "norm1"
  top: "pool1"
  pooling_param {
    pool: MAX
    kernel_size: 3
    stride: 2
  }
}
layer {
  name: "conv2"
  type: "Convolution"
  bottom: "pool1"
  top: "conv2"
  param {
    lr_mult: 1
    decay_mult: 1
  }
  param {
    lr_mult: 2
    decay_mult: 0
  }
  convolution_param {
    num_output: 256
    pad: 1
    kernel_size: 5
    stride: 2
  }
}
layer {
  name: "relu2"
  type: "ReLU"
  bottom: "conv2"
  top: "conv2"
}
layer {
  name: "norm2"
  type: "LRN"
  bottom: "conv2"
  top: "norm2"
  lrn_param {
    local_size: 5
    alpha: 0.0005
    beta: 0.75
    k: 2
  }
}
layer {
  name: "pool2"
  type: "Pooling"
  bottom: "norm2"
  top: "pool2"
  pooling_param {
    pool: MAX
    kernel_size: 3
    stride: 2
  }
}
layer {
  name: "conv3"
  type: "Convolution"
  bottom: "pool2"
  top: "conv3"
  param {
    lr_mult: 1
    decay_mult: 1
  }
  param {
    lr_mult: 2
    decay_mult: 0
  }
  convolution_param {
    num_output: 512
    pad: 1
    kernel_size: 3
  }
}
layer {
  name: "relu3"
  type: "ReLU"
  bottom: "conv3"
  top: "conv3"
}
layer {
  name: "conv4"
  type: "Convolution"
  bottom: "conv3"
  top: "conv4"
  param {
    lr_mult: 1
    decay_mult: 1
  }
  param {
    lr_mult: 2
    decay_mult: 0
  }
  convolution_param {
    num_output: 512
    pad: 1
    kernel_size: 3
  }
}
layer {
  name: "relu4"
  type: "ReLU"
  bottom: "conv4"
  top: "conv4"
}
layer {
  name: "conv5"
  type: "Convolution"
  bottom: "conv4"
  top: "conv5"
  param {
    lr_mult: 1
    decay_mult: 1
  }
  param {
    lr_mult: 2
    decay_mult: 0
  }
  convolution_param {
    num_output: 512
    pad: 1
    kernel_size: 3
  }
}
layer {
  name: "relu5"
  type: "ReLU"
  bottom: "conv5"
  top: "conv5"
}
layer {
  name: "roi_pool5"
  type: "ROIPooling"
  bottom: "conv5"
  bottom: "rois"
  top: "pool5"
  roi_pooling_param {
    pooled_h: 6
    pooled_w: 6
    spatial_scale: 0.0625
  }
}
layer {
  name: "fc6"
  type: "InnerProduct"
  bottom: "pool5"
  top: "fc6"
  param {
    lr_mult: 1
    decay_mult: 1
  }
  param {
    lr_mult: 2
    decay_mult: 0
  }
  inner_product_param {
    num_output: 4096
  }
}
layer {
  name: "relu6"
  type: "ReLU"
  bottom: "fc6"
  top: "fc6"
}
layer {
  name: "drop6"
  type: "Dropout"
  bottom: "fc6"
  top: "fc6"
  dropout_param {
    dropout_ratio: 0.5
  }
}
layer {
  name: "fc7"
  type: "InnerProduct"
  bottom: "fc6"
  top: "fc7"
  param {
    lr_mult: 1
    decay_mult: 1
  }
  param {
    lr_mult: 2
    decay_mult: 0
  }
  inner_product_param {
    num_output: 1024
  }
}
layer {
  name: "relu7"
  type: "ReLU"
  bottom: "fc7"
  top: "fc7"
}
layer {
  name: "drop7"
  type: "Dropout"
  bottom: "fc7"
  top: "fc7"
  dropout_param {
    dropout_ratio: 0.5
  }
}
layer {
  name: "cls_score"
  type: "InnerProduct"
  bottom: "fc7"
  top: "cls_score"
  param {
    lr_mult: 1
    decay_mult: 1
  }
  param {
    lr_mult: 2
    decay_mult: 0
  }
  inner_product_param {
    num_output: 2
    weight_filler {
      type: "gaussian"
      std: 0.01
    }
    bias_filler {
      type: "constant"
      value: 0
    }
  }
}
layer {
  name: "bbox_pred"
  type: "InnerProduct"
  bottom: "fc7"
  top: "bbox_pred"
  param {
    lr_mult: 1
    decay_mult: 1
  }
  param {
    lr_mult: 2
    decay_mult: 0
  }
  inner_product_param {
    num_output: 8
    weight_filler {
      type: "gaussian"
      std: 0.001
    }
    bias_filler {
      type: "constant"
      value: 0
    }
  }
}
layer {
  name: "loss_cls"
  type: "SoftmaxWithLoss"
  bottom: "cls_score"
  bottom: "labels"
  top: "loss_cls"
  loss_weight: 1
}
layer {
  name: "loss_bbox"
  type: "SmoothL1Loss"
  bottom: "bbox_pred"
  bottom: "bbox_targets"
  bottom: "bbox_loss_weights"
  top: "loss_bbox"
  loss_weight: 1
}
I0110 14:27:28.324796 10246 layer_factory.hpp:74] Creating layer data
I0110 14:27:28.342154 10246 net.cpp:84] Creating Layer data
I0110 14:27:28.342166 10246 net.cpp:338] data -> data
I0110 14:27:28.342173 10246 net.cpp:338] data -> rois
I0110 14:27:28.342177 10246 net.cpp:338] data -> labels
I0110 14:27:28.342181 10246 net.cpp:338] data -> bbox_targets
I0110 14:27:28.342185 10246 net.cpp:338] data -> bbox_loss_weights
I0110 14:27:28.342188 10246 net.cpp:113] Setting up data
I0110 14:27:28.342464 10246 net.cpp:120] Top shape: 1 3 100 100 (30000)
I0110 14:27:28.342469 10246 net.cpp:120] Top shape: 1 5 (5)
I0110 14:27:28.342471 10246 net.cpp:120] Top shape: 1 (1)
I0110 14:27:28.342473 10246 net.cpp:120] Top shape: 1 8 (8)
I0110 14:27:28.342475 10246 net.cpp:120] Top shape: 1 8 (8)
I0110 14:27:28.342476 10246 layer_factory.hpp:74] Creating layer conv1
I0110 14:27:28.342481 10246 net.cpp:84] Creating Layer conv1
I0110 14:27:28.342483 10246 net.cpp:380] conv1 <- data
I0110 14:27:28.342486 10246 net.cpp:338] conv1 -> conv1
I0110 14:27:28.342490 10246 net.cpp:113] Setting up conv1
I0110 14:27:28.342509 10246 net.cpp:120] Top shape: 1 96 47 47 (212064)
I0110 14:27:28.342515 10246 layer_factory.hpp:74] Creating layer relu1
I0110 14:27:28.342519 10246 net.cpp:84] Creating Layer relu1
I0110 14:27:28.342520 10246 net.cpp:380] relu1 <- conv1
I0110 14:27:28.342522 10246 net.cpp:327] relu1 -> conv1 (in-place)
I0110 14:27:28.342525 10246 net.cpp:113] Setting up relu1
I0110 14:27:28.342527 10246 net.cpp:120] Top shape: 1 96 47 47 (212064)
I0110 14:27:28.342530 10246 layer_factory.hpp:74] Creating layer norm1
I0110 14:27:28.342532 10246 net.cpp:84] Creating Layer norm1
I0110 14:27:28.342533 10246 net.cpp:380] norm1 <- conv1
I0110 14:27:28.342535 10246 net.cpp:338] norm1 -> norm1
I0110 14:27:28.342538 10246 net.cpp:113] Setting up norm1
I0110 14:27:28.342542 10246 net.cpp:120] Top shape: 1 96 47 47 (212064)
I0110 14:27:28.342543 10246 layer_factory.hpp:74] Creating layer pool1
I0110 14:27:28.342547 10246 net.cpp:84] Creating Layer pool1
I0110 14:27:28.342548 10246 net.cpp:380] pool1 <- norm1
I0110 14:27:28.342550 10246 net.cpp:338] pool1 -> pool1
I0110 14:27:28.342553 10246 net.cpp:113] Setting up pool1
I0110 14:27:28.342558 10246 net.cpp:120] Top shape: 1 96 23 23 (50784)
I0110 14:27:28.342561 10246 layer_factory.hpp:74] Creating layer conv2
I0110 14:27:28.342564 10246 net.cpp:84] Creating Layer conv2
I0110 14:27:28.342566 10246 net.cpp:380] conv2 <- pool1
I0110 14:27:28.342569 10246 net.cpp:338] conv2 -> conv2
I0110 14:27:28.342576 10246 net.cpp:113] Setting up conv2
I0110 14:27:28.343029 10246 net.cpp:120] Top shape: 1 256 11 11 (30976)
I0110 14:27:28.343034 10246 layer_factory.hpp:74] Creating layer relu2
I0110 14:27:28.343036 10246 net.cpp:84] Creating Layer relu2
I0110 14:27:28.343037 10246 net.cpp:380] relu2 <- conv2
I0110 14:27:28.343040 10246 net.cpp:327] relu2 -> conv2 (in-place)
I0110 14:27:28.343042 10246 net.cpp:113] Setting up relu2
I0110 14:27:28.343045 10246 net.cpp:120] Top shape: 1 256 11 11 (30976)
I0110 14:27:28.343046 10246 layer_factory.hpp:74] Creating layer norm2
I0110 14:27:28.343050 10246 net.cpp:84] Creating Layer norm2
I0110 14:27:28.343050 10246 net.cpp:380] norm2 <- conv2
I0110 14:27:28.343052 10246 net.cpp:338] norm2 -> norm2
I0110 14:27:28.343055 10246 net.cpp:113] Setting up norm2
I0110 14:27:28.343058 10246 net.cpp:120] Top shape: 1 256 11 11 (30976)
I0110 14:27:28.343060 10246 layer_factory.hpp:74] Creating layer pool2
I0110 14:27:28.343063 10246 net.cpp:84] Creating Layer pool2
I0110 14:27:28.343065 10246 net.cpp:380] pool2 <- norm2
I0110 14:27:28.343068 10246 net.cpp:338] pool2 -> pool2
I0110 14:27:28.343071 10246 net.cpp:113] Setting up pool2
I0110 14:27:28.343075 10246 net.cpp:120] Top shape: 1 256 5 5 (6400)
I0110 14:27:28.343078 10246 layer_factory.hpp:74] Creating layer conv3
I0110 14:27:28.343081 10246 net.cpp:84] Creating Layer conv3
I0110 14:27:28.343082 10246 net.cpp:380] conv3 <- pool2
I0110 14:27:28.343086 10246 net.cpp:338] conv3 -> conv3
I0110 14:27:28.343088 10246 net.cpp:113] Setting up conv3
I0110 14:27:28.343865 10246 net.cpp:120] Top shape: 1 512 5 5 (12800)
I0110 14:27:28.343871 10246 layer_factory.hpp:74] Creating layer relu3
I0110 14:27:28.343874 10246 net.cpp:84] Creating Layer relu3
I0110 14:27:28.343875 10246 net.cpp:380] relu3 <- conv3
I0110 14:27:28.343878 10246 net.cpp:327] relu3 -> conv3 (in-place)
I0110 14:27:28.343880 10246 net.cpp:113] Setting up relu3
I0110 14:27:28.343883 10246 net.cpp:120] Top shape: 1 512 5 5 (12800)
I0110 14:27:28.343884 10246 layer_factory.hpp:74] Creating layer conv4
I0110 14:27:28.343888 10246 net.cpp:84] Creating Layer conv4
I0110 14:27:28.343889 10246 net.cpp:380] conv4 <- conv3
I0110 14:27:28.343891 10246 net.cpp:338] conv4 -> conv4
I0110 14:27:28.343894 10246 net.cpp:113] Setting up conv4
I0110 14:27:28.345049 10246 net.cpp:120] Top shape: 1 512 5 5 (12800)
I0110 14:27:28.345059 10246 layer_factory.hpp:74] Creating layer relu4
I0110 14:27:28.345063 10246 net.cpp:84] Creating Layer relu4
I0110 14:27:28.345065 10246 net.cpp:380] relu4 <- conv4
I0110 14:27:28.345068 10246 net.cpp:327] relu4 -> conv4 (in-place)
I0110 14:27:28.345072 10246 net.cpp:113] Setting up relu4
I0110 14:27:28.345073 10246 net.cpp:120] Top shape: 1 512 5 5 (12800)
I0110 14:27:28.345075 10246 layer_factory.hpp:74] Creating layer conv5
I0110 14:27:28.345078 10246 net.cpp:84] Creating Layer conv5
I0110 14:27:28.345079 10246 net.cpp:380] conv5 <- conv4
I0110 14:27:28.345082 10246 net.cpp:338] conv5 -> conv5
I0110 14:27:28.345085 10246 net.cpp:113] Setting up conv5
I0110 14:27:28.346448 10246 net.cpp:120] Top shape: 1 512 5 5 (12800)
I0110 14:27:28.346460 10246 layer_factory.hpp:74] Creating layer relu5
I0110 14:27:28.346463 10246 net.cpp:84] Creating Layer relu5
I0110 14:27:28.346465 10246 net.cpp:380] relu5 <- conv5
I0110 14:27:28.346468 10246 net.cpp:327] relu5 -> conv5 (in-place)
I0110 14:27:28.346472 10246 net.cpp:113] Setting up relu5
I0110 14:27:28.346474 10246 net.cpp:120] Top shape: 1 512 5 5 (12800)
I0110 14:27:28.346475 10246 layer_factory.hpp:74] Creating layer roi_pool5
I0110 14:27:28.346479 10246 net.cpp:84] Creating Layer roi_pool5
I0110 14:27:28.346480 10246 net.cpp:380] roi_pool5 <- conv5
I0110 14:27:28.346483 10246 net.cpp:380] roi_pool5 <- rois
I0110 14:27:28.346487 10246 net.cpp:338] roi_pool5 -> pool5
I0110 14:27:28.346489 10246 net.cpp:113] Setting up roi_pool5
I0110 14:27:28.346491 10246 roi_pooling_layer.cpp:30] Spatial scale: 0.0625
I0110 14:27:28.346501 10246 net.cpp:120] Top shape: 1 512 6 6 (18432)
I0110 14:27:28.346503 10246 layer_factory.hpp:74] Creating layer fc6
I0110 14:27:28.346508 10246 net.cpp:84] Creating Layer fc6
I0110 14:27:28.346508 10246 net.cpp:380] fc6 <- pool5
I0110 14:27:28.346511 10246 net.cpp:338] fc6 -> fc6
I0110 14:27:28.346514 10246 net.cpp:113] Setting up fc6
I0110 14:27:28.402639 10246 net.cpp:120] Top shape: 1 4096 (4096)
I0110 14:27:28.402658 10246 layer_factory.hpp:74] Creating layer relu6
I0110 14:27:28.402663 10246 net.cpp:84] Creating Layer relu6
I0110 14:27:28.402667 10246 net.cpp:380] relu6 <- fc6
I0110 14:27:28.402670 10246 net.cpp:327] relu6 -> fc6 (in-place)
I0110 14:27:28.402673 10246 net.cpp:113] Setting up relu6
I0110 14:27:28.402676 10246 net.cpp:120] Top shape: 1 4096 (4096)
I0110 14:27:28.402678 10246 layer_factory.hpp:74] Creating layer drop6
I0110 14:27:28.402683 10246 net.cpp:84] Creating Layer drop6
I0110 14:27:28.402683 10246 net.cpp:380] drop6 <- fc6
I0110 14:27:28.402688 10246 net.cpp:327] drop6 -> fc6 (in-place)
I0110 14:27:28.402689 10246 net.cpp:113] Setting up drop6
I0110 14:27:28.402693 10246 net.cpp:120] Top shape: 1 4096 (4096)
I0110 14:27:28.402693 10246 layer_factory.hpp:74] Creating layer fc7
I0110 14:27:28.402698 10246 net.cpp:84] Creating Layer fc7
I0110 14:27:28.402698 10246 net.cpp:380] fc7 <- fc6
I0110 14:27:28.402703 10246 net.cpp:338] fc7 -> fc7
I0110 14:27:28.402709 10246 net.cpp:113] Setting up fc7
I0110 14:27:28.418727 10246 net.cpp:120] Top shape: 1 1024 (1024)
I0110 14:27:28.418745 10246 layer_factory.hpp:74] Creating layer relu7
I0110 14:27:28.418751 10246 net.cpp:84] Creating Layer relu7
I0110 14:27:28.418752 10246 net.cpp:380] relu7 <- fc7
I0110 14:27:28.418756 10246 net.cpp:327] relu7 -> fc7 (in-place)
I0110 14:27:28.418761 10246 net.cpp:113] Setting up relu7
I0110 14:27:28.418763 10246 net.cpp:120] Top shape: 1 1024 (1024)
I0110 14:27:28.418764 10246 layer_factory.hpp:74] Creating layer drop7
I0110 14:27:28.418768 10246 net.cpp:84] Creating Layer drop7
I0110 14:27:28.418769 10246 net.cpp:380] drop7 <- fc7
I0110 14:27:28.418772 10246 net.cpp:327] drop7 -> fc7 (in-place)
I0110 14:27:28.418774 10246 net.cpp:113] Setting up drop7
I0110 14:27:28.418777 10246 net.cpp:120] Top shape: 1 1024 (1024)
I0110 14:27:28.418778 10246 layer_factory.hpp:74] Creating layer fc7_drop7_0_split
I0110 14:27:28.418782 10246 net.cpp:84] Creating Layer fc7_drop7_0_split
I0110 14:27:28.418783 10246 net.cpp:380] fc7_drop7_0_split <- fc7
I0110 14:27:28.418787 10246 net.cpp:338] fc7_drop7_0_split -> fc7_drop7_0_split_0
I0110 14:27:28.418790 10246 net.cpp:338] fc7_drop7_0_split -> fc7_drop7_0_split_1
I0110 14:27:28.418797 10246 net.cpp:113] Setting up fc7_drop7_0_split
I0110 14:27:28.418800 10246 net.cpp:120] Top shape: 1 1024 (1024)
I0110 14:27:28.418802 10246 net.cpp:120] Top shape: 1 1024 (1024)
I0110 14:27:28.418803 10246 layer_factory.hpp:74] Creating layer cls_score
I0110 14:27:28.418809 10246 net.cpp:84] Creating Layer cls_score
I0110 14:27:28.418812 10246 net.cpp:380] cls_score <- fc7_drop7_0_split_0
I0110 14:27:28.418814 10246 net.cpp:338] cls_score -> cls_score
I0110 14:27:28.418819 10246 net.cpp:113] Setting up cls_score
I0110 14:27:28.418843 10246 net.cpp:120] Top shape: 1 2 (2)
I0110 14:27:28.418848 10246 layer_factory.hpp:74] Creating layer bbox_pred
I0110 14:27:28.418851 10246 net.cpp:84] Creating Layer bbox_pred
I0110 14:27:28.418853 10246 net.cpp:380] bbox_pred <- fc7_drop7_0_split_1
I0110 14:27:28.418859 10246 net.cpp:338] bbox_pred -> bbox_pred
I0110 14:27:28.418864 10246 net.cpp:113] Setting up bbox_pred
I0110 14:27:28.418929 10246 net.cpp:120] Top shape: 1 8 (8)
I0110 14:27:28.418938 10246 layer_factory.hpp:74] Creating layer loss_cls
I0110 14:27:28.418943 10246 net.cpp:84] Creating Layer loss_cls
I0110 14:27:28.418946 10246 net.cpp:380] loss_cls <- cls_score
I0110 14:27:28.418949 10246 net.cpp:380] loss_cls <- labels
I0110 14:27:28.418956 10246 net.cpp:338] loss_cls -> loss_cls
I0110 14:27:28.418974 10246 net.cpp:113] Setting up loss_cls
I0110 14:27:28.418978 10246 layer_factory.hpp:74] Creating layer loss_cls
…
